week4/model.pt (torch_old, 406978 bytes, 20 tensors)

hidden1.weight f4 [100, 784]
00000000: 5f2b 8d3d d631 bb3c 7501 3f3d 2ed8 9d3d
00000010: f7a4 a53d 730e 553d 4236 323d 6c4f a03d
00000020: 5a97 9e3d a71e 203d 1427 763d fb69 153d
00000030: b6bf 933d 98f4 963c ac92 8e3d a6f8 5c3d
00000040: d98d 333d a899 a03d f97e 013d cbdc 743d
00000050: fe05 bd3c 93b7 613d 380f 3d3c ac49 623d
00000060: 6d5a 843d fd51 8c3d d7b9 2e3d a2d4 173d
00000070: 4eea 763d 6990 973d ae03 913c e87f 8a3d
00000080: 7a6d 9b3c 539c 7e3d 7695 bb3c 6e8a df3c
00000090: 9537 453d 3385 373d 86c1 653d 30db b33c
000000a0: 929b 983d ae48 013d 89fa 733d 164d 583d
000000b0: 94f8 4b3d 368c 753d 30e2 823c de09 813d
000000c0: 74fe 8c3d 61c8 583c f14e 613c 24e6 a03d
000000d0: ce34 a03d 6497 763d 0e24 193d 2be9 333d
000000e0: 4677 933d ae78 903c 11d4 653d 6f8a 6d3d
000000f0: 80fe 9d3c 6976 2a3d e479 a23c 6663 633d
00000100: 9776 453d 7099 8e3d 3980 493d 71f6 713d
00000110: d474 df3c 4ec9 9f3c d7ea 013d f39a 653c
00000120: 049e 863d 1cb4 be3c d245 773d a5dc 203d
00000130: 0a99 683d ac19 bb3c 0688 9f3d cc74 783d
00000140: 7c65 853c fc8c a73c 7a5b 9c3d b964 2f3d
00000150: 5752 4d3d 04dd a13d 834f 153d 9852 653d
00000160: a22b a13d 3cf0 763d 1321 513d d64d bd3c
00000170: fcfb b53c 067c 863d 4a98 c53d 1da5 a43d
00000180: 5aec 9f3d 582b a23d d970 583d cf5b 883d
00000190: ddb6 dc3c ddce 9f3c 5e0f ff3c 936d d73c
000001a0: 43e7 253d 5de0 c03c 011c 6e3d a7b7 7c3d
000001b0: 0c4c a53d fe15 913d fb05 7e3d 4938 593c
000001c0: 06c0 e13c fa8b ec3c 6bd0 3a3d 3841 9d3d
000001d0: 2c20 4a3d 4aaf 8c3d 7d2d 163d 863e b73d
000001e0: 96f9 c83d 7495 973d 2e55 9a3d c20e 9d3d
000001f0: 21be ab3d aaf0 4d3c b686 8e3d eb8e a23d
00000200: 64de a43d d118 b23d d5f1 d03d f263 af3d
00000210: f7ac 903d 93f0 a83d 9ba2 5d3d a026 8f3c
00000220: 86bd 423d 2fb9 0f3d c5ac 5d3c b6ba b73c
00000230: 57b8 883d 636d 6d3c a702 4d3d 40c2 883d
00000240: 548f df3c 5826 453c 7b13 6d3d 0756 1d3d
00000250: cc30 983d 65d5 b83d b843 8abb 3594 0bbe
00000260: c781 42be d242 4fbe fbf6 4bbe b484 f1bd
00000270: cb71 63bd f417 45bd 4d1f d93c d4bd 8e3d
00000280: a0f6 ab3d eded b63d c8de 4b3c 105f d3bc
00000290: 0da8 23bd 0b6e 713d b072 2c3d f8db 473c
000002a0: 9732 203d f4fc 9e3c 9854 553c 36d2 8f3d
000002b0: 137f 323d cab1 85b9 9529 663c 8cc1 833b
000002c0: dc0e 7cbc 647e 61bd 1bfd 19be 98a7 59be
000002d0: 1004 90be 47ab a3be 8ffa cabe f66d 9fbe
000002e0: 5b92 47be bb0f 39be e626 0dbe 82a0 88bd
000002f0: 6fed 2c3c a177 063d 85a0 8b3b 0752 73bd
00000300: 802d 29bd d9f4 a0ba 4450 853d 44b3 d13c
00000310: a7f5 273d 881a 303d 7b5c 303d 8a47 673d
00000320: 31d3 d23c 3a8e bd3c 60dc 513c 2df3 2b3c
00000330: 50ed 93bc b6a5 dfbd d172 66be 9b2d 4ebe
00000340: 849d 89be 0d25 8bbe df10 84be b7ca 83be
00000350: 9393 58be 32d4 83be 0fd8 72be 2253 ebbd
00000360: 0832 54bd 8b40 5cbd 4164 e4bc 86ab 98bc
00000370: 0f4e a23b 6e03 873c 2635 2f3d 9ad3 a33d
00000380: 7400 9f3d 3cb0 643d 1a19 603d c048 f33c
00000390: 81af 903d cffe 203d be1d 9f3c 59a3 e6bc
000003a0: 777c b0bd e9fd e2bd aba8 6fbe f79f 56be
000003b0: 62e8 50be 9a85 3fbe 42f9 93bd 491e 4bbd
000003c0: 58f5 ccbd edac 51be 6a7a 48be 26c3 5abe
000003d0: b30f 05be 354f 41bd 471e d4bd e70e a03b
000003e0: 9d7a c1bc d1f4 453d 7956 313d 84b7 f73c
000003f0: 2270 c73c c3e1 2d3d fd4b 1d3d c963 003d
0.06893038 0.022850912 0.04663225 0.07707249 0.08088105 0.052015733 0.043508776 0.078276485
0.07743712 0.039091732 0.06009586 0.036478024 0.072143 0.018427178 0.06961569 0.053948067
0.04383645 0.078418076 0.03161523 0.059780877 0.023074146 0.05510671 0.011539273 0.05524604
0.0646256 0.068515755 0.0426577 0.037068017 0.060282044 0.07400591 0.01770195 0.067626774
0.0189731 0.0621608 0.022898417 0.027287688 0.04814871 0.044804763 0.05609276 0.021955103
0.07451548 0.031563453 0.0595651 0.05280789 0.04979761 0.05994817 0.015976995 0.0630071
0.068844706 0.013231368 0.013751731 0.07856396 0.07822572 0.06020297 0.0373879 0.04392354
0.07200484 0.01763567 0.056110445 0.05799335 0.019286394 0.04161683 0.019833513 0.055514716
0.0482088 0.0696286 0.04919455 0.059072915 0.027277388 0.01950517 0.0317181 0.014013994
0.06573108 0.023279242 0.06036932 0.039272923 0.056786574 0.02283939 0.07789616 0.06065826
0.016283743 0.020452969 0.07634635 0.042820666 0.050127354 0.079034835 0.03645278 0.05598697
0.078696504 0.0602877 0.051056933 0.023108404 0.022214882 0.06566624 0.096481875 0.08039305
0.07808752 0.079184234 0.052841995 0.06658136 0.026942665 0.01950782 0.031135257 0.026297366
0.04050375 0.023544485 0.058132175 0.061698582 0.080711454 0.07084273 0.062017422 0.013258048
0.027557384 0.02887534 0.04560892 0.07678455 0.049347088 0.06869371 0.036664475 0.08947472
0.0981323 0.07401553 0.07535778 0.076688305 0.083858736 0.012569586 0.06959288 0.07937416
0.0805023 0.086961396 0.10202376 0.08563985 0.070642404 0.08249011 0.05411015 0.017474473
0.047544025 0.035088714 0.013529961 0.022427898 0.06675785 0.014491412 0.050051358 0.06677675
0.027290024 0.012033068 0.057879906 0.03841212 0.07431182 0.09025077 -0.0042194985 -0.13630755
-0.18994819 -0.20240334 -0.19918434 -0.11792889 -0.055528443 -0.048118547 0.026504183 0.069698006
0.08396649 0.089320995 0.012443252 -0.025802165 -0.039955188 0.058942836 0.042101562 0.012198441
0.039110746 0.019407727 0.013020657 0.070225164 0.04357822 -0.000255002 0.014048 0.0040208753
-0.015384402 -0.055052176 -0.15037958 -0.21255338 -0.281281 -0.31966612 -0.39644286 -0.3113858
-0.19489424 -0.18072407 -0.1378437 -0.066712394 0.010554655 0.03282893 0.004261079 -0.0594044
-0.041303158 -0.0012280002 0.0650945 0.025598176 0.041005757 0.042994052 0.043056946 0.05646471
0.02573547 0.023139108 0.012808889 0.010494989 -0.018057495 -0.10920279 -0.22504736 -0.20134585
-0.26877987 -0.27176705 -0.25794122 -0.25740597 -0.21150045 -0.2574783 -0.23715232 -0.11490466
-0.051805526 -0.05377249 -0.027879836 -0.018636476 0.004953153 0.016481128 0.042775296 0.07999344
0.07763758 0.055832133 0.05471144 0.029697776 0.07064725 0.039305504 0.019423362 -0.028154062
-0.0861749 -0.11083586 -0.23404185 -0.20959459 -0.20401147 -0.18703309 -0.072252765 -0.04958943
-0.10007733 -0.20476122 -0.19577947 -0.21363506 -0.1299427 -0.04719468 -0.103573374 0.004884589
-0.023618037 0.04832918 0.043295357 0.030238874 0.024345461 0.04245163 0.038402546 0.031345163

hidden1.bias f4 [100]
00000000: 620c f2bd e728 eebd 239c c33a 3437 51bb
00000010: 2c09 d2bc f348 85bd 389e dbba 8c96 b2bc
00000020: fcf2 4abd 3b71 c4bd 8590 073c 1db6 e7bc
00000030: e46e 07bd d489 b3bd 7ca8 bfbd e611 0d3d
00000040: c578 473c 4b3e 37bd d323 35bd 83a8 e93b
00000050: feb4 e53b 80ab 18bc 93fc 0abe 0951 84bd
00000060: fd72 21bd 955a 433c 29a6 eebd df03 153c
00000070: 24df dfbc 38a8 46bd 5a02 1fbe 3ff3 ffba
00000080: b16d 28be 7b70 64bd f291 85bd 27a8 5cbc
00000090: e7c9 95bd f0f0 0bbc 8b0f babd a912 87b9
000000a0: 9aaa 90bd 0528 d3bd 8c46 5ebd 8855 97bc
000000b0: 5a8c 24be 6431 8ebd b172 b4bd 708c 3ebd
000000c0: 604e febd 6b87 77bd 1a6f 513c bd48 713b
000000d0: 434c 58be cafd b3bd 2722 7fbc c764 57bd
000000e0: 63f2 0fbd a354 863c d9df 1dbd 7c56 68bd
000000f0: e3df 17bd 01ca bdbb 5969 123d 61e0 2eba
00000100: 5068 66bd aa90 e9ba 55f3 25bd 1e05 b4bc
00000110: 43c5 8dbd 8caa 2ebc ec42 c0ba 5557 aabd
00000120: b82b 0bbe ab01 9bbd 06cf d1bd 2d37 a5bc
00000130: 874d 67bd 3728 0abd c0d4 0dbd eec5 20bd
00000140: edd3 54bd 1aa0 53bd 94f6 22bd 8f0f 32bd
00000150: 4073 08bc 2a52 7dba 2b4c 44bd 4dd4 46bd
00000160: ec7f a4bd b039 6239 7142 7ebd 4278 e83c
00000170: 17f0 27bd 771d b4bc 4f8b 74bd b1ac 13be
00000180: 9007 babd c1c1 02be 2323 00bd 46b6 0ebe
-0.11818768 -0.11628895 0.0014923852 -0.0031923773 -0.02563914 -0.065080546 -0.0016755527 -0.021800302
-0.049548134 -0.095919095 0.008274202 -0.02828508 -0.033064738 -0.08766523 -0.09358308 0.034440897
0.01217479 -0.04473714 -0.044223618 0.007130684 0.0070101013 -0.009318233 -0.13572912 -0.06460769
-0.039416302 0.011923452 -0.11652786 0.009095161 -0.027328081 -0.04850027 -0.15528241 -0.0019527449
-0.16448094 -0.055771332 -0.065219775 -0.013467825 -0.073139004 -0.008541331 -0.09084996 -0.0002576311
-0.0706379 -0.103103675 -0.054266497 -0.018473402 -0.16069165 -0.06943014 -0.08810938 -0.04652065
-0.124172926 -0.06043188 0.012782836 0.0036817037 -0.21122842 -0.08788641 -0.015572107 -0.052586343
-0.035143267 0.01639778 -0.038543556 -0.056723103 -0.03707875 -0.005791903 0.035745 -0.00066710083
-0.056251824 -0.0017819603 -0.040515263 -0.021975096 -0.0692239 -0.010660779 -0.0014668382 -0.083174385
-0.13590896 -0.075686775 -0.10244565 -0.020167911 -0.05647042 -0.033729758 -0.034626722 -0.03925126
-0.05195992 -0.051666357 -0.039785936 -0.04347187 -0.008328259 -0.00096634275 -0.047924202 -0.04854231
-0.08032212 0.0002157453 -0.062075082 0.028377656 -0.041000452 -0.021986706 -0.059703168 -0.14421345
-0.09083474 -0.12769224 -0.03128351 -0.1393672

hidden2.weight f4 [100, 100]
00000000: c7da 8bbe f66e 3ebd f328 dbbd 738f a83d
00000010: 172e dc3b 98aa b43b a1d6 003e 23f3 0ebe
00000020: 988e c23d 281e 723e 847c 443d d653 b7bd
00000030: a89b 74bc 646b 07be 865b 3abe 0ce7 143e
00000040: e7a3 673d 3376 4a3d c7c9 62be 32b9 193d
00000050: baf5 abbc acef 533c 3215 2fbe f5b7 ffbd
00000060: 8a15 2d3d 42bf 57bd 4246 5ebd 1516 28be
00000070: 16b6 d03c ac9e 3f3d b0aa 99be f406 283c
00000080: 26e1 92bd 9190 e6bc dcb2 843d 30a0 8c3d
00000090: a5fc 47be bdb8 cdbd b6ce 52be a1b9 d3bd
000000a0: dd1a acbd dafb 153d cff6 953d 0667 7bbe
000000b0: c6d5 143c 5de3 ec3b fcdb aebd 2d9e cdbc
000000c0: 10a0 b1bd be52 09bd 3e5e 6abd fe18 063c
000000d0: fffe 3cbd ec27 63be 1fa9 00be 00f9 bcbc
000000e0: 7b30 303d 40c9 7f3c 250c 733d 9008 fbbd
000000f0: b485 38bd 557b 22bd 2d00 a13d b21a 78bd
00000100: fd23 d43d a4d1 72bd 6fc6 85bd babf 533b
00000110: 4956 943d 1187 84be 3e24 cc3e effb 36bd
00000120: 4839 4fbe 0407 b13c 57bb 48bc 08d6 1d3c
00000130: 0ac1 44bd 0a78 dbbc 1d11 c5ba 3e3a ccbd
00000140: 183f 123d 829b e0bd 2d31 863b 1c17 7b3d
00000150: 67b2 a03d 0e01 bbbd e449 873d 1b05 f6bd
00000160: 0c3b de3e e0ed 923e 30a1 06bd 058d a1be
00000170: 5adb 49bb 95b7 11bd 8124 c8bd 5292 babd
00000180: 7452 9bbd cfcf 5abd 2b11 6abd 3c92 783d
00000190: 5aca 573d 887e 33bd 1787 91bd af1e 7a3d
000001a0: 76f9 d6bd d942 ed3c 2069 093d 20e5 273d
000001b0: 6772 053c 1c6a 05bd 9bad 13bc 801f bb3d
000001c0: 36fe 483d ed73 8dbd e064 6b3c 52a3 5ebe
000001d0: eb6c cfbd 9159 bdbd 8afe 893c 394b 92bd
000001e0: ac42 be3d 2ea9 7c3d 198f d7be 6510 3abd
000001f0: 1f82 a33d 0a16 78bd 8531 bdbd 6d03 5bbd
00000200: 2cb5 5dbd 7352 073b f907 b1bd 4b07 ad3c
00000210: d0bf 653c 9c54 f7bd c737 943d b635 b8bd
00000220: d86f 46bc c925 bc3d 6e17 adbd 6505 8bbd
00000230: b5b6 5cbd 6d7e 403d 5d80 9ebd 7431 15be
00000240: 9224 543d 282a 6c3d 174f 1fbd f820 6fbc
00000250: c6a8 6ebd 454d 2dbd f804 23be 8b48 a43d
00000260: ee2a f0bd 9ee2 9fbd 9a94 653e eeea c33d
00000270: 3287 de3b cba6 6f3c 97b9 89bd 8d7e 3abe
00000280: a035 9fbb 85d7 b7bd b825 3f3d 756c 6ebd
00000290: 6197 c63d 2f5a 1dbd 0885 213d 2519 f13c
000002a0: adbe bdbd fb02 2f3d 67cd b13d c203 86bd
000002b0: 595b 9ebd 8e96 a2bd a424 e03c 1a97 eabd
000002c0: 3e6f 843c 76a8 58bc 23b4 813c 0ef2 acbd
000002d0: c13d 673d f62e 8fbd 8ad8 4f3a bf2e 3d3d
000002e0: 7cea 24bc d344 b33c 3c95 dfbc 0185 9b3d
000002f0: b509 bcbd 6b83 39be 8abb a3bd 83a9 4f3d
00000300: 126a 9ebd dc76 4cbd 4171 d3bc 72ea 06be
00000310: d4a9 273c 7bc9 b0bd 3c89 923c bcec 9e3d
00000320: 3f86 7cbd 30df a13d cd07 8b3c 25d9 d63b
00000330: 3b55 0dbd 0d1a 183c 11ec 4cbe 6021 e4bc
00000340: 053d 9dbd 44f2 33be 24dc 1bbe 8c19 0ebd
00000350: 22cd 0a3d 1fa9 a5bc 07a2 b3bd b47e 06be
00000360: 630a e1bb cb2f 0f3d 6a04 86bd 2f2f 8b3c
00000370: 825f 75bd 3f14 37bd 6948 83be 803f 0cbe
00000380: ea99 303d 53b2 a9bd 9ff1 133c 5170 c1bd
00000390: 7a34 d9bd 280f ddbd 52fe a8bc d527 523d
000003a0: 5f09 853d bec0 01be 243f 3fbc e044 393b
000003b0: 90ad 973e 4bde 0cbd cf89 9abd 4cd4 06bd
000003c0: 7ba6 e63c 3668 4fbc 0414 903c f39b 86be
000003d0: 2635 0ebd 7213 373d a1d9 fabd 1bdc 913e
000003e0: edaa 95bd f73b fabd 61ee 1ebe 4050 c23d
000003f0: 2d37 6dbd d480 69bd 896b 79bd 69e3 be3d
-0.2731535 -0.04649254 -0.1070117 0.08230486 0.0067193615 0.0055135004 0.12581874 -0.13959937
0.09499854 0.23644316 0.04797031 -0.08951537 -0.0149296895 -0.1322456 -0.18198976 0.14541262
0.056552794 0.04942913 -0.22147284 0.03753013 -0.020991195 0.01293556 -0.17097929 -0.12486259
0.04225687 -0.052672632 -0.05426622 -0.16414674 0.02547745 0.04678218 -0.30013037 0.010255564
-0.0717185 -0.028145107 0.06479427 0.06866491 -0.1952997 -0.10045002 -0.20586666 -0.1033814
-0.08403561 0.036617137 0.07322466 -0.24551019 0.009084171 0.0072292523 -0.085380524 -0.025099838
-0.086731076 -0.033526175 -0.057218783 0.00818467 -0.04614162 -0.22183198 -0.12564515 -0.023067951
0.043014985 0.015611947 0.059337754 -0.122574925 -0.045049384 -0.0396684 0.07861362 -0.060572334
0.10358427 -0.05928196 -0.06531989 0.0032310323 0.0724302 -0.25884297 0.398714 -0.044673856
-0.20236695 0.02160979 -0.012251697 0.009633549 -0.04803566 -0.026790638 -0.0015035007 -0.09972046
0.035704702 -0.10967161 0.0040952177 0.061301336 0.078465275 -0.091310605 0.066058904 -0.120126925
0.43404424 0.2869711 -0.032868564 -0.31552902 -0.003080091 -0.035575468 -0.097725876 -0.0910994
-0.07584086 -0.053420838 -0.05714528 0.060686335 0.052683212 -0.04382184 -0.071058445 0.06106442
-0.104968 0.02896254 0.03354752 0.040989995 0.008144951 -0.032571897 -0.009013559 0.091368675
0.04907056 -0.06906877 0.014367312 -0.2174199 -0.10128196 -0.09245599 0.016845006 -0.07143254
0.092900604 0.06168478 -0.42101362 -0.04542579 0.07983803 -0.060567893 -0.09237961 -0.053470064
-0.054127857 0.0020648509 -0.08644099 0.021121642 0.014022782 -0.12076685 0.07237201 -0.089946195
-0.012111627 0.091868944 -0.084517345 -0.06788138 -0.05388518 0.04699557 -0.07739327 -0.14569646
0.05179269 0.05765739 -0.038893785 -0.014595263 -0.058266424 -0.042310018 -0.15919864 0.08021649
-0.11726938 -0.07806896 0.22419968 0.09566294 0.006791019 0.014627169 -0.067248516 -0.18212338
-0.0048586875 -0.08976654 0.04666683 -0.0582089 0.09696842 -0.038416084 0.03943351 0.029430935
-0.09264884 0.04272745 0.086817555 -0.065436855 -0.07732267 -0.07938872 0.027361222 -0.114546016
0.016166326 -0.013223758 0.015832966 -0.08444606 0.056455377 -0.06991379 0.000792869 0.04618716
-0.010065671 0.021883404 -0.02729284 0.07593728 -0.09181539 -0.18116538 -0.079947546 0.05069877
-0.07735075 -0.04991804 -0.02581084 -0.13175371 0.010233361 -0.08632179 0.017887704 0.07759997
-0.061651465 0.07903898 0.016971493 0.0065566474 -0.03450511 0.009283555 -0.20011927 -0.027847946
-0.07677654 -0.17572886 -0.15220696 -0.034692332 0.033887036 -0.020222245 -0.08771139 -0.13134271
-0.0068676933 0.03495769 -0.06543811 0.016990272 -0.059905536 -0.044697043 -0.25641182 -0.13696098
0.043115534 -0.08285966 0.009029775 -0.09445251 -0.10605712 -0.107939065 -0.020629082 0.051307518
0.06495928 -0.12671182 -0.011672769 0.0028269812 0.29624605 -0.034391683 -0.07545816 -0.032917306
0.028155556 -0.012659123 0.01758767 -0.26290855 -0.034718655 0.04469628 -0.12248541 0.2848824
-0.07307992 -0.12218469 -0.15520622 0.09487963 -0.057913948 -0.057007626 -0.06089357 0.09320719

hidden2.bias f4 [100]
00000000: 75cc 0ebe f3cf 1bbe 6767 56be 97e3 4ebe
00000010: 63c3 0fbe 6e1d 22be 00f9 54be e360 b2bd
00000020: 4e37 b73f 6df9 d8bd 542a d2bd 929d 29be
00000030: fdb7 dfbe ba34 4cbe 86a9 b5be 770a 9ebd
00000040: cfb6 02bf 3e90 f3bd 3955 1dbe 3e40 9dbe
00000050: 94d1 4dbd b06b a8be f9a9 84bd 1e82 a4be
00000060: 3aa0 ecbd 0c29 11be 8f9c 0fbe 84bf 6cbe
00000070: f5cc 523c f18f 42be 1c7d 533d defd 6f3c
00000080: 0b7a 60be 9317 a3be 8f9f 59be 676b 29bc
00000090: 8690 813e 63f1 bdbd de46 b6be 106e 0bbf
000000a0: 943e 38be 03b8 c6bd 0234 5abe 33ac 0fbd
000000b0: 2d71 99be 1bf7 66be 095c 2ebe 695c 52be
000000c0: dd2b 4dbe 7604 bdbe b012 09be e818 9fbe
000000d0: d43a d9be 4513 033e 2303 04be 251a 3bbe
000000e0: 5fc2 55bd f5ea f3bd 3c05 24be f7f4 75bd
000000f0: 9a8d 8e3e fd1c 7bbe ce5a 1abe 33ff 033f
00000100: 72cc 8ebe fad2 30be e316 afbd 3326 3bbe
00000110: 6420 07be 6d4b abbe dcad aabe b6c8 1ebf
00000120: 90df 51be 4a32 38be 1907 61be 6d58 66be
00000130: 7113 cebe a0ed 8ebd 3c6d 37bd ac25 46be
00000140: 522f 10be 7dfe ebbc 7cd7 56be c9ac cf3d
00000150: 4267 ed3d aab4 e7bd f6e0 2bbe 08fe 95be
00000160: 41dd 88bd 3fa6 0dbe a3f1 aabe 4db7 f8bd
00000170: 5f11 07bf 0327 013e ab6e 4fbd 663f 0cbe
00000180: 9cb7 05bf 1713 45bd d56f 0abe 7bc7 d53e
-0.13945182 -0.15216045 -0.20937882 -0.20204006 -0.14039378 -0.15831539 -0.20798111 -0.08709886
1.4313753 -0.10594449 -0.1026198 -0.16564015 -0.4369506 -0.19941989 -0.354809 -0.0771684
-0.51060194 -0.118927464 -0.15364541 -0.30713075 -0.050248697 -0.3289466 -0.06477732 -0.32130522
-0.11553998 -0.14175814 -0.14024566 -0.23119932 0.012866248 -0.19000222 0.051632985 0.014647929
-0.21921556 -0.31853923 -0.21252273 -0.010340548 0.25305575 -0.092745565 -0.35600942 -0.5446482
-0.17992622 -0.09703066 -0.21308902 -0.03507633 -0.2996916 -0.22555201 -0.17027296 -0.20543064
-0.20036264 -0.36917466 -0.13386035 -0.3107369 -0.42427695 0.1280032 -0.12891822 -0.18271692
-0.05218732 -0.11910049 -0.16017622 -0.06004807 0.27842408 -0.24522777 -0.15073702 0.5156128
-0.27890354 -0.17267981 -0.08549287 -0.1827629 -0.1319595 -0.33455983 -0.3333577 -0.6202501
-0.20495439 -0.17987934 -0.21975364 -0.2249467 -0.40249208 -0.06978917 -0.04478191 -0.19350308
-0.14080551 -0.028807873 -0.20980638 0.10140378 0.115919605 -0.11313756 -0.16785035 -0.29295373
-0.06682826 -0.13832949 -0.3338748 -0.12144337 -0.5276088 0.12612538 -0.05064265 -0.1369606
-0.5223329 -0.04811391 -0.13519223 0.41753754

hidden3.weight f4 [100, 100]
00000000: d0d6 733e de7e acbd 8c2e 9c3d 0762 a7bd
00000010: ad59 52be 17c9 71bd 9455 4dbd 3bb9 6fbd
00000020: 231b 53bd 6c6e b73d 3204 0ebd 775b 103e
00000030: 88f9 4dbc 8320 b33d 340b d9bd ad78 853c
00000040: 78e4 31bc 7910 a4bd 6995 18be 20fe e8bd
00000050: 20ac 1c3e c0ce dbbb a18b a23d 7332 ccbc
00000060: 0f74 7ebd 93fb 473d 089a eabd 7df7 3cbe
00000070: be9c 54bd c136 45be 3856 623d 2e25 863d
00000080: 0627 be3b 3842 203c 79ca 1fbd efb4 70bd
00000090: cb53 7cbd da52 0c3d 5867 1cbd 1972 6dbd
000000a0: 724c 8bbc 58c3 fabd 6db6 1abe 040f 19be
000000b0: 946f 913d 17af aabc 4a48 a7bd e6b0 003e
000000c0: 66cb e4bc 4480 fdbc f0be 6bbd 2264 22be
000000d0: 4aaa 8b3d 136b 05be d6b8 1abc 45e8 dfbb
000000e0: b3ba 72bd fb10 143d cec0 bb3d 4c89 3f3d
000000f0: 8dcd 0e3e 329f 2abd 3119 01bd 7e36 90bd
00000100: 9a5e 57bd 3273 2e3e 930d 14bd 6169 28bc
00000110: 9536 343d badd 75be bce7 13bd cc2f 943c
00000120: 8548 ffbd ef04 6cbd 9759 d9bd 7bd6 82bd
00000130: 35a2 3bbd 9a6f 97bd 120d f2bc 5805 abbd
00000140: 9773 883c 5fd7 b9bd cf78 23bf 1e7d 95bd
00000150: 30ea 9fbd d375 48bd 04c1 af3d f0bd b03c
00000160: 8071 e1bc b3ec 92bd 4eca 113e d5ab 233e
00000170: b0b9 9bbc f56d 66be e997 2d3c 3068 2d3e
00000180: 843b b6bd 4b7f 9c3d 849d 36bd 8388 12be
00000190: 59e4 11bc f881 00ba 0732 61bd 2037 32bd
000001a0: e8b0 20bd 071e 8c3d 3489 28be 65e4 80bd
000001b0: 33a3 a8bd 4094 b9bd 3b58 913d a755 a4bd
000001c0: ec22 4bbd f7e8 c739 d90a 03bd 060e d7bd
000001d0: e1d3 10bc 09a7 a1bd b634 943c 489f c8bd
000001e0: 79bd 7c3d 2953 d5bd bd21 1d3c cdd0 073e
000001f0: 28cb 1abe 11ac a0bb 465d d6bd cc40 c7bd
00000200: daab b7bd 74f0 6f3d 8302 c1bd 20d8 3abd
00000210: 1a93 2b3d 83a5 1abe e40c a2bd a98b 5fbc
00000220: 5f3e 18bd 95ba efbd a200 9ebd 2efc 39bb
00000230: ec74 9ebd 2263 31bd 4af3 3e3b 329d ebbd
00000240: 48ea c43d b720 5fbd fba9 893b bb68 03bc
00000250: 33f0 e63c 5028 dabd 5b7c 2ebd f9f2 3f3e
00000260: 8797 11be 4576 94bd a5b6 8dbd ada8 a7bd
00000270: 7bf6 3cbd eba1 ae3d 17ce d8bc c2b5 9fbd
00000280: 64f3 8cbd 3ecb ac3c 9b18 5fbd 5785 a5bd
00000290: 8083 9b3d 27cd 43bd b06c efbd 8ccf 50bc
000002a0: 88fc f83c a509 fa3d b0c5 aabd edb3 5fbd
000002b0: 9320 873d 39c0 233e dc1b e53d 680e 8ebd
000002c0: 81ee e1bc 0af8 443c c0b8 95bb abfa f4ba
000002d0: ee7f 793d a2e7 a5bd d4fe 99bd 5ac6 933c
000002e0: c8b5 e5bb bc36 813d b134 873c 6cd8 2cbd
000002f0: 4dcc f93c f452 c3bd eb3f 93bd dd94 74bd
00000300: a159 bebd 4446 a4bd 8160 ba3c fc42 5abd
00000310: 4314 a2bb d2e1 593d d396 02be 6684 68b9
00000320: d6cf 5a3c 4a69 d93c f02a 9abd 3556 1ebe
00000330: 790b fcbc 2fae 06be 20a4 10be c331 e0bd
00000340: b227 6c3e a74b aabd a741 a03d 8d58 eebd
00000350: 9588 5c3e d62d 28be b6a3 563f 2d72 6bbd
00000360: 33a8 223e 94b1 ef3c 15da d9bd ce01 7bbe
00000370: c556 223e a92a 09be c36a 5ebc 62e2 5f3e
00000380: 1ab6 9f3d 59a0 2e3e 08e8 11bd 88f1 7f3e
00000390: b071 b1bd ecab a5bc b004 d23d 9540 0ebe
000003a0: 44dd d33d 0948 78be 3036 3f3d ac6b ae3d
000003b0: 000b c0bc 6201 493e 89e5 5e3d 0b91 b93d
000003c0: 7c61 7f3e b77e 1fbe dbd4 ee3d 5548 f1bd
000003d0: 27be e83e 03fe d83d addb 0cbe ad6b 61bd
000003e0: d36b 81bc 2069 3cbe 735d b7bc 0405 933e
000003f0: e236 7abd b0d1 7c3e 3c62 5abe 4866 153c
0.23812413 -0.084226355 0.076260656 -0.08172994 -0.20542021 -0.059029665 -0.05013044 -0.05852626
-0.05153955 0.08956608 -0.03467197 0.14097391 -0.0125717 0.087464355 -0.1059784 0.016292894
-0.010857694 -0.080109544 -0.14900745 -0.113765955 0.15300035 -0.006707996 0.07936788 -0.0249264
-0.0621224 0.048823904 -0.114551604 -0.18453784 -0.051907293 -0.19259168 0.055258006 0.0655006
0.005802992 0.009781413 -0.039011452 -0.0587663 -0.06160335 0.0342587 -0.038184494 -0.05797014
-0.017004225 -0.1224429 -0.15108652 -0.14947134 0.0710136 -0.020835442 -0.08168085 0.12567481
-0.02792902 -0.03094495 -0.05755514 -0.1585851 0.068195894 -0.13029127 -0.009443482 -0.0068331086
-0.05926008 0.036149006 0.09167634 0.046761796 0.13945599 -0.041655727 -0.031518165 -0.070416436
-0.052580453 0.17036131 -0.036145758 -0.010279031 0.043997366 -0.24010363 -0.03610967 0.018089198
-0.12465004 -0.057621893 -0.10612791 -0.06388565 -0.04580899 -0.07394333 -0.029547248 -0.083506286
0.01665668 -0.09074282 -0.63856214 -0.07299255 -0.078083396 -0.04894049 0.08581737 0.021574944
-0.027519941 -0.07174053 0.1423733 0.15983517 -0.019009441 -0.22502883 0.0105953 0.16934276
-0.088980705 0.07641467 -0.044583812 -0.14309888 -0.00890454 -0.00049021794 -0.05497935 -0.043509603
-0.03923121 0.06841665 -0.16458589 -0.06293563 -0.08234253 -0.090614796 0.07096907 -0.080241494
-0.04959385 0.0003812981 -0.031992767 -0.10500722 -0.008839578 -0.078931876 0.01809154 -0.097960055
0.061704133 -0.10416252 0.009590563 0.13263245 -0.1511656 -0.0049033244 -0.10467009 -0.09729156
-0.08968325 0.058578923 -0.09424307 -0.04561627 0.041888334 -0.151022 -0.07912615 -0.013644137
-0.037168857 -0.117055096 -0.077149644 -0.002837907 -0.07737145 -0.04330743 0.002913671 -0.11504592
0.09614998 -0.05447456 0.0042011715 -0.008020575 0.028190708 -0.1065222 -0.042599063 0.1874503
-0.1421796 -0.072491206 -0.06919602 -0.08186469 -0.0461335 0.08526977 -0.026465459 -0.077983394
-0.068823606 0.021093007 -0.054466825 -0.08082073 0.07593441 -0.04780307 -0.11690652 -0.0127447955
0.030393854 0.12208871 -0.08338487 -0.05461495 0.0659801 0.15991296 0.111869544 -0.069363415
-0.027579548 0.012022028 -0.004569143 -0.0018690428 0.06091302 -0.08100821 -0.07519308 0.018038917
-0.0070101954 0.06309268 0.016504617 -0.042198583 0.030492926 -0.095373064 -0.07189926 -0.05971228
-0.09294439 -0.080212146 0.022751095 -0.053286538 -0.004946263 0.053193875 -0.12752847 -0.00022174566
0.013355216 0.026539464 -0.07527721 -0.15462573 -0.03076719 -0.13152383 -0.14125109 -0.10946991
0.23062018 -0.08315211 0.07825022 -0.116379835 0.21536477 -0.16423735 0.83843553 -0.057481933
0.15884475 0.02925948 -0.10637299 -0.24512407 0.15853412 -0.1339518 -0.013575259 0.21863702
0.07798405 0.17053355 -0.035621673 0.2499448 -0.08664262 -0.02022358 0.102548 -0.13891824
0.103449374 -0.24246229 0.046682537 0.085166305 -0.023442745 0.19629434 0.05441812 0.09060868
0.24939531 -0.15575682 0.11661693 -0.11781374 0.45457575 0.10595324 -0.13755675 -0.05503433
-0.015798485 -0.18399477 -0.022383427 0.28714764 -0.061087497 0.24689364 -0.21326536 0.009118624

hidden3.bias f4 [100]
00000000: afdb 683c c3b1 23be ed0c f93e f960 51be
00000010: 024e 0b3f 6c35 d0bd b38a 19be cd4c dd3e
00000020: 880a 7cbd 3d76 753f a009 78be def7 2e3d
00000030: f77d 19bd 0dfe 38be d22d 9cbd 5979 32be
00000040: a5f9 a2bc 2b99 b33d 32f3 393f fb59 0abe
00000050: 9842 333e 808a 603f 7ff4 47be 21e3 70be
00000060: 0336 fabd ad71 cebb f96e 0abe 8062 7a3d
00000070: b66b 46be 04b0 42be 5ecc 06be 00cb 1a3e
00000080: dc82 ecbc 7e9a 4cbe b3e0 85bd ff5d 293f
00000090: 92c1 5fbd 67a1 32bc d9b7 28be 3d92 21be
000000a0: 0455 b5bd 53b0 c4bd 60af b23e a086 83bd
000000b0: d1a5 19be 28ee b9bc d489 f83e c9d1 6ebe
000000c0: b152 abbd 80c8 4d39 3f8b b63f e0af ce3e
000000d0: 1228 bbbb 44c9 84be c82b 28be 330e 14be
000000e0: 6dd6 0c3f feaa 1ebe 74db 13be d42f 1abe
000000f0: 82d4 a53c 08e5 683f 0864 0fbe 5268 413e
00000100: 5faa 8ebd af59 c83e 9d5f 3d3f 6b42 80bc
00000110: 1076 0abe d9ea 80bd d2f2 77be 8fa4 71be
00000120: 4d6b 17be bfed 70be 8be7 cb3e 4e34 903f
00000130: af62 ad3d 2a00 07be 3c41 3ebe ef36 0dbd
00000140: 6f5c c1bd 9589 b1bd 14a1 6c3f f028 16be
00000150: fa8b 81be 2714 cabd 4f7b af3e 2668 d5bd
00000160: 627d 20bc 77ff b93e b6bf 64be 208f 4fbe
00000170: 37d4 853c 62ac 36bd 7ccb 87bc c1a5 06be
00000180: 283f 97be d68f c0bd 2725 92be ce1e 36be
0.014212533 -0.1598578 0.48642674 -0.20447148 0.54415905 -0.101664394 -0.14994316 0.43222657
-0.06153348 0.9588354 -0.24222422 0.042716853 -0.037473645 -0.18065663 -0.07625927 -0.17429103
-0.01989443 0.08769449 0.7263671 -0.13510887 0.17505872 0.87711334 -0.19526862 -0.23524143
-0.12217333 -0.0063001723 -0.13518895 0.061129093 -0.19377026 -0.19012457 -0.13163897 0.15116501
-0.028870992 -0.19980809 -0.065369986 0.6615905 -0.054627962 -0.010902739 -0.16476382 -0.15778442
-0.08854106 -0.09603944 0.34899426 -0.06422162 -0.1500466 -0.02269657 0.48542655 -0.23322214
-0.083653815 0.00019625016 1.4261245 0.40368557 -0.005711564 -0.25934803 -0.16422951 -0.14458542
0.5501469 -0.15494916 -0.14439183 -0.15057307 0.020242933 0.90974474 -0.14003003 0.18887451
-0.069660895 0.39130923 0.7397402 -0.01565667 -0.135216 -0.06294794 -0.24213722 -0.2359793
-0.14787026 -0.23528193 0.3982509 1.1265962 0.08466088 -0.13183656 -0.18579572 -0.034476217
-0.094414584 -0.0866882 0.92433286 -0.14664054 -0.25302106 -0.09867125 0.34273764 -0.10420255
-0.009795519 0.36327717 -0.22338757 -0.20269442 0.016336543 -0.04459799 -0.016576521 -0.13149168
-0.29540372 -0.094024345 -0.2854397 -0.17785189

classification_layer.weight f4 [10, 100]
00000000: 0bd7 b9be 7b56 213e 5009 363f c420 a5bd
00000010: 612d 51bd 73cb 813d 36c9 0cbe 32a2 033e
00000020: 97f9 363c 3e25 713d 69e6 013e 1213 e0bd
00000030: 859c b03d 856e 003e 7a38 203e 4524 4c3e
00000040: c233 9cbc a9fb 2abe 2f67 0dbe cffd 9d3e
00000050: c518 91be 9372 82bd 5a6f 0ebe 579d 53bd
00000060: 41c8 0dbb a7d5 f1bd 53c1 623e 7a37 21be
00000070: e42e 023e a041 47bd a779 ad3d 7b18 51be
00000080: be8e 993d b2dc 673e bb83 0c3e 5e1a c8bd
00000090: 20a1 0a3d 4522 823d 1ebc 29be 1494 333d
000000a0: dd6d 643d 9d47 873c 471b 313e edaf cc3a
000000b0: de2a a13e 8836 39bc df40 673e 494b a03d
000000c0: 7362 4e3e f14c 0ebd 51a3 283e ab83 e3bd
000000d0: 2ca8 39be a536 a93f e1d6 b1bc e76c e43c
000000e0: b8f0 403e 710a 58bd a102 983d d943 c93c
000000f0: fba2 e3bd 6b55 f83c 5ac8 98bd e1a1 983e
00000100: 6bbf ca3c 2704 fa39 1226 98be b0a0 863d
00000110: 074c 78bc f437 3e3d 2cb4 9a3d 5e27 ccbd
00000120: 71bf c43e 4e62 93bd 88b5 1cbe f555 f0bd
00000130: 4360 8e3d a6e1 f53c 663b febc 476f b8bd
00000140: 0f96 afbd 58c3 5bbd 2a70 593d 16de 24bd
00000150: 2225 8f3e 9474 0bbd 5232 5bbe 14df d4bb
00000160: db25 bd38 a648 0e3e ece2 3fbe 9f00 fbbd
00000170: fefd 013d 6f35 623c b990 57bd 00db 66bd
00000180: 17e4 95be d806 66be fdd2 a23c 608b 63bd
00000190: 3c74 30be 0ba9 95bd 0fee 60be 4f13 113e
000001a0: fc05 663d dcfd 4abd 6392 513d d5d0 5bbc
000001b0: e45d 843d 569e cabd c9be afbc 73a5 153e
000001c0: e901 1dbe 8919 213d c96e 833d 638d 0fbe
000001d0: 534e e5bc d1a3 05bd 3cdc 203d 0f38 c9bd
000001e0: 4610 623e 92b8 79be 8e7d 763e 1c4a 953e
000001f0: 7ce4 c33d 9aea b83e 340c d3bd 88ed 6f3e
00000200: 6222 e1bd e08f 9bbe 3a53 66bd 0163 e53d
00000210: a4fa 29bd 0ed0 d6bd 8363 01be 0f01 8a3e
00000220: e70e 023d c9b7 d13c c62f 373f b222 01be
00000230: 8370 333b 7003 f9bc 674f 9b3e 0da3 2abe
00000240: 43df f03c 6ba1 0cbe fc7c bfbe 23a1 3bbe
00000250: 1624 c9bd d2c0 bcbc 9889 b33e c256 abbd
00000260: 22ed 033e 0e8a 2dbe 197e 42bd f892 de3d
00000270: dbdd 26be 7c9e d7bc a7ae 833c 8c54 0e3f
00000280: 5ee9 ac3d 455e b4be 9911 ec3c ba97 f73d
00000290: 65b0 64be 8c98 0fbe 4251 823e 7539 93bd
000002a0: b5e5 b7bd 7e00 bc3c efc9 27bd 7bbd 0b3f
000002b0: fa9c bfbd 8411 14be 474e 2bbd 225c dabe
000002c0: de09 3b3e f9a4 48bc 6db2 6bbc 3043 2b3e
000002d0: 945d 853d db86 f13d b0b4 3c3e 0268 8bbd
000002e0: 900d 36be 34af 163e 19ef 253e c1ac d9bd
000002f0: 285b af3d a7a0 303d 0d83 b7bd cb5d b5bd
00000300: 19fd a63b fd9e 07be 2f20 9cbd 793c 93bd
00000310: ef27 3b3e 23b7 cabd ca68 9ebe dc93 9bbb
00000320: 5a47 f73d 7b18 1fbd 6461 a73c 8461 6bbd
00000330: f276 853f 2935 2d3d b5e8 27bc 6e76 633e
00000340: 930a f7bc f574 afbd 3a96 153e 104c c23e
00000350: 5b2c 7d3e 4e5a 1d3c 36e9 b4bb 1b4b 123f
00000360: e70e 69bd f7c1 95be 3781 c2be 7de9 f53d
00000370: a114 92bd 190a dabe 4c29 18be 328f f7be
00000380: da10 24be 889c 7b3e 56b0 7f3f aa69 133e
00000390: 5732 2b3e e1bb 2bbd 1f7e cb3d 261a 5f3e
000003a0: e90a 4b3e 012c 42bd c93a c6bd 6793 943d
000003b0: 7b43 463d cbd0 12bd b2bd 853f 13e5 613d
000003c0: 642a 0e3d f545 f9be 793c 7d3e e63b 973d
000003d0: aca5 453e 94f8 dfbc f766 443e bf1f 6c3e
000003e0: 6f3a 843d ccd8 563d 7293 f7bd 6ab3 72be
000003f0: d2a5 2ebe 6fd2 29bf 8041 933d 0f66 eb3c
-0.36296877 0.15755646 0.7110796 -0.0806289 -0.051068667 0.06337633 -0.13748631 0.12854841
0.011167905 0.058873408 0.12685551 -0.109411374 0.08623604 0.1254216 0.15646544 0.1993571
-0.019067649 -0.16697563 -0.13808893 0.30857703 -0.2833921 -0.063695095 -0.13909665 -0.051663723
-0.0021634253 -0.11808329 0.2214406 -0.15743819 0.127132 -0.04864657 0.08470469 -0.20419495
0.07497929 0.22642782 0.13722126 -0.09770654 0.033845067 0.06354193 -0.16575667 0.04384239
0.055768836 0.01651364 0.17295562 0.0015616395 0.31478018 -0.011304505 0.2258334 0.078268595
0.20154743 -0.034741346 0.1646855 -0.11109098 -0.18130559 1.3219801 -0.021708908 0.02788396
0.18841827 -0.052744333 0.074223764 0.024568485 -0.111150704 0.030314168 -0.07460089 0.29811004
0.024749478 0.0004768681 -0.29716545 0.065736175 -0.015154845 0.04644008 0.07553896 -0.09968446
0.38427308 -0.071964845 -0.15303624 -0.11735145 0.06951954 0.030014824 -0.031034183 -0.090055995
-0.08573543 -0.05365309 0.053085484 -0.04025086 0.27958018 -0.034046724 -0.21405914 -0.0064963195
9.0192734e-05 0.138949 -0.18738908 -0.12255978 0.031736366 0.013806685 -0.052628253 -0.0563612
-0.2927558 -0.22463548 0.019875998 -0.05555284 -0.1723184 -0.07307633 -0.21965812 0.14167522
0.05615805 -0.049558505 0.051164996 -0.013416489 0.06463221 -0.098934814 -0.021453278 0.14613895
-0.1533276 0.039330993 0.06417615 -0.14018779 -0.02799145 -0.03262693 0.039272532 -0.098251455
0.2207652 -0.24386814 0.24071333 0.29158103 0.09565064 0.36116487 -0.10305062 0.23430455
-0.10992886 -0.30383205 -0.056231715 0.11200524 -0.041498795 -0.10488902 -0.12635617 0.26953933
0.031752493 0.02560033 0.7155727 -0.12610891 0.0027380295 -0.030397147 0.30334017 -0.16663761
0.029403334 -0.13733451 -0.37400043 -0.18323188 -0.09821336 -0.023041163 0.35065913 -0.08366157
0.12883428 -0.16947195 -0.047483537 0.10867876 -0.16295569 -0.026320688 0.016074492 0.5559776
0.08442949 -0.35228172 0.028816985 0.120894864 -0.22332914 -0.14023036 0.2545262 -0.071886934
-0.0897936 0.022949453 -0.040964063 0.54586 -0.09356113 -0.14459807 -0.041822698 -0.42648417
0.18265483 -0.012246364 -0.014385802 0.16724849 0.06511989 0.117933 0.18428302 -0.06806947
-0.17778611 0.14715272 0.1620449 -0.10628653 0.085623085 0.04312196 -0.08960543 -0.0885578
0.0050960896 -0.13244243 -0.07623326 -0.071892686 0.18276952 -0.09898212 -0.30939323 -0.004747851
0.12074156 -0.038841706 0.020432182 -0.057466045 1.0426924 0.042287026 -0.010248353 0.22213146
-0.03015641 -0.0856723 0.14608088 0.37948656 0.24723952 0.00960405 -0.005520965 0.5714585
-0.056898978 -0.29249546 -0.37989208 0.12007425 -0.07132841 -0.4258583 -0.14859504 -0.48351437
-0.16022053 0.2457143 0.9987844 0.14395776 0.16718422 -0.041927222 0.09936165 0.21787319
0.1982838 -0.047405247 -0.09679181 0.07254677 0.0484042 -0.03584365 1.0448515 0.055150103
0.034708396 -0.48686185 0.247301 0.073844716 0.1930148 -0.027340211 0.19179903 0.23058985
0.06456458 0.052452847 -0.1208867 -0.23701254 -0.17055443 -0.6633672 0.071902275 0.028735189

classification_layer.bias f4 [10]
00000000: 0851 62bf 0afc d7bf e63c dd3e 986d dbbd
00000010: 780e 923f e3a3 b5be 4122 39bf 3054 7ebd
00000020: d0aa 2f3f 9da7 c43f
-0.88404894 -1.6873791 0.43210524 -0.10714263 1.1410666 -0.35476598 -0.7231789 -0.062092006
0.68620014 1.5363652

hidden1_bn.weight f4 [100]
00000000: 26ed 663f 20f8 a23c c69c 443f a8e0 4c3f
00000010: 9f65 7b3f babe b83e 001b a93d 3e85 ae3e
00000020: f5c6 2f3f c619 a83e cc7c 3a3f a044 603e
00000030: 8090 dc3c 5564 263f 854f 743f 6860 343f
00000040: 8269 fa3e f412 f83e f092 a33d 936a 6d3f
00000050: b657 713f 387d 463f eda6 323f 70bb 723d
00000060: 3ef2 b43e 42af c83e e344 323f 9485 c53e
00000070: c26c 253f d66f 113f c888 c53e 294a 7d3f
00000080: ca61 073f e4ca 6f3e a447 f73e 5a7d 803e
00000090: 5efc 6b3f 60b2 f23c 96a2 833e b893 8f3e
000000a0: eca7 dc3e 01e0 3f3f bb38 273f 545c 3a3e
000000b0: e064 1a3e b030 653f 59d3 2e3f 5068 493f
000000c0: e609 b03e 00ff ad3d e0bf 923e 86a1 0a3f
000000d0: f096 7b3e d221 f43e 0ec0 3a3f 006c 9b3b
000000e0: f712 223f 0082 893d 5e7c 763f aef7 ec3e
000000f0: b137 2b3f 7d19 1e3f 8888 653e 2861 ab3d
00000100: 1255 5b3f 4004 9a3c b71a 133f f8cc 563f
00000110: 20ae 4f3f a4e3 e53e 80be f53d 70ac b03d
00000120: db0f 1a3f 386c 333f 1db8 6d3f 3a8c a53e
00000130: 43bc 603f 5049 153f 84b6 eb3e e0bc 6d3d
00000140: 109d ed3d a730 013f 9bc6 053f ebee 4d3f
00000150: 2033 d63c 0062 8d3a 9875 3c3e 478c 403f
00000160: 4eb1 f33e 1088 463d 49f8 2c3f 3194 4d3f
00000170: ad44 113f 410d 783f 603e 483e 00dc 953e
00000180: 8031 3d3c 924c 943e be14 0a3f d8ba ab3d
0.9020561 0.019893706 0.7680172 0.800303 0.98201936 0.36083013 0.08257103 0.3408603
0.6866296 0.32832164 0.72846675 0.21901178 0.026924372 0.64996845 0.9543384 0.70459604
0.4890862 0.4845196 0.079870105 0.92740744 0.9427446 0.7753482 0.6978596 0.059260786
0.35341066 0.3919621 0.6963636 0.38578475 0.64619076 0.56811273 0.38580918 0.98941284
0.5288359 0.2341724 0.48296845 0.25095636 0.92181957 0.029626071 0.2570998 0.28042388
0.43096864 0.7495118 0.6532094 0.18199283 0.15077543 0.89527416 0.6829124 0.78674793
0.34382552 0.08495903 0.28662014 0.54152715 0.24569297 0.47682053 0.729493 0.004743099
0.6331019 0.06714249 0.9628352 0.46282715 0.66881853 0.6175764 0.22415364 0.083681405
0.8567668 0.018800855 0.5746264 0.8390651 0.8112507 0.4490024 0.119992256 0.0862664
0.60180444 0.70087004 0.9285906 0.32333547 0.87787265 0.5831499 0.46037686 0.058041453
0.11602223 0.5046486 0.5225617 0.80442685 0.026147425 0.0010786653 0.18404233 0.75214046
0.4759621 0.048469603 0.67566353 0.8030425 0.56745416 0.96895224 0.19555044 0.2926941
0.011547446 0.2896467 0.539379 0.08385247

hidden1_bn.bias f4 [100]
00000000: 0000 0000 0000 0000 0000 0000 0000 0000
00000010: 0000 0000 0000 0000 0000 0000 0000 0000
00000020: 0000 0000 0000 0000 0000 0000 0000 0000
00000030: 0000 0000 0000 0000 0000 0000 0000 0000
00000040: 0000 0000 0000 0000 0000 0000 0000 0000
00000050: 0000 0000 0000 0000 0000 0000 0000 0000
00000060: 0000 0000 0000 0000 0000 0000 0000 0000
00000070: 0000 0000 0000 0000 0000 0000 0000 0000
00000080: 0000 0000 0000 0000 0000 0000 0000 0000
00000090: 0000 0000 0000 0000 0000 0000 0000 0000
000000a0: 0000 0000 0000 0000 0000 0000 0000 0000
000000b0: 0000 0000 0000 0000 0000 0000 0000 0000
000000c0: 0000 0000 0000 0000 0000 0000 0000 0000
000000d0: 0000 0000 0000 0000 0000 0000 0000 0000
000000e0: 0000 0000 0000 0000 0000 0000 0000 0000
000000f0: 0000 0000 0000 0000 0000 0000 0000 0000
00000100: 0000 0000 0000 0000 0000 0000 0000 0000
00000110: 0000 0000 0000 0000 0000 0000 0000 0000
00000120: 0000 0000 0000 0000 0000 0000 0000 0000
00000130: 0000 0000 0000 0000 0000 0000 0000 0000
00000140: 0000 0000 0000 0000 0000 0000 0000 0000
00000150: 0000 0000 0000 0000 0000 0000 0000 0000
00000160: 0000 0000 0000 0000 0000 0000 0000 0000
00000170: 0000 0000 0000 0000 0000 0000 0000 0000
00000180: 0000 0000 0000 0000 0000 0000 0000 0000
0.0 0.0 0.0 0.0 0.0 0.0 0.0 0.0
0.0 0.0 0.0 0.0 0.0 0.0 0.0 0.0
0.0 0.0 0.0 0.0 0.0 0.0 0.0 0.0
0.0 0.0 0.0 0.0 0.0 0.0 0.0 0.0
0.0 0.0 0.0 0.0 0.0 0.0 0.0 0.0
0.0 0.0 0.0 0.0 0.0 0.0 0.0 0.0
0.0 0.0 0.0 0.0 0.0 0.0 0.0 0.0
0.0 0.0 0.0 0.0 0.0 0.0 0.0 0.0
0.0 0.0 0.0 0.0 0.0 0.0 0.0 0.0
0.0 0.0 0.0 0.0 0.0 0.0 0.0 0.0
0.0 0.0 0.0 0.0 0.0 0.0 0.0 0.0
0.0 0.0 0.0 0.0 0.0 0.0 0.0 0.0
0.0 0.0 0.0 0.0

hidden1_bn.running_mean f4 [100]
00000000: 0000 0000 0000 0000 0000 0000 0000 0000
00000010: 0000 0000 0000 0000 0000 0000 0000 0000
00000020: 0000 0000 0000 0000 0000 0000 0000 0000
00000030: 0000 0000 0000 0000 0000 0000 0000 0000
00000040: 0000 0000 0000 0000 0000 0000 0000 0000
00000050: 0000 0000 0000 0000 0000 0000 0000 0000
00000060: 0000 0000 0000 0000 0000 0000 0000 0000
00000070: 0000 0000 0000 0000 0000 0000 0000 0000
00000080: 0000 0000 0000 0000 0000 0000 0000 0000
00000090: 0000 0000 0000 0000 0000 0000 0000 0000
000000a0: 0000 0000 0000 0000 0000 0000 0000 0000
000000b0: 0000 0000 0000 0000 0000 0000 0000 0000
000000c0: 0000 0000 0000 0000 0000 0000 0000 0000
000000d0: 0000 0000 0000 0000 0000 0000 0000 0000
000000e0: 0000 0000 0000 0000 0000 0000 0000 0000
000000f0: 0000 0000 0000 0000 0000 0000 0000 0000
00000100: 0000 0000 0000 0000 0000 0000 0000 0000
00000110: 0000 0000 0000 0000 0000 0000 0000 0000
00000120: 0000 0000 0000 0000 0000 0000 0000 0000
00000130: 0000 0000 0000 0000 0000 0000 0000 0000
00000140: 0000 0000 0000 0000 0000 0000 0000 0000
00000150: 0000 0000 0000 0000 0000 0000 0000 0000
00000160: 0000 0000 0000 0000 0000 0000 0000 0000
00000170: 0000 0000 0000 0000 0000 0000 0000 0000
00000180: 0000 0000 0000 0000 0000 0000 0000 0000
0.0 0.0 0.0 0.0 0.0 0.0 0.0 0.0
0.0 0.0 0.0 0.0 0.0 0.0 0.0 0.0
0.0 0.0 0.0 0.0 0.0 0.0 0.0 0.0
0.0 0.0 0.0 0.0 0.0 0.0 0.0 0.0
0.0 0.0 0.0 0.0 0.0 0.0 0.0 0.0
0.0 0.0 0.0 0.0 0.0 0.0 0.0 0.0
0.0 0.0 0.0 0.0 0.0 0.0 0.0 0.0
0.0 0.0 0.0 0.0 0.0 0.0 0.0 0.0
0.0 0.0 0.0 0.0 0.0 0.0 0.0 0.0
0.0 0.0 0.0 0.0 0.0 0.0 0.0 0.0
0.0 0.0 0.0 0.0 0.0 0.0 0.0 0.0
0.0 0.0 0.0 0.0 0.0 0.0 0.0 0.0
0.0 0.0 0.0 0.0

hidden1_bn.running_var f4 [100]
00000000: 0000 803f 0000 803f 0000 803f 0000 803f
00000010: 0000 803f 0000 803f 0000 803f 0000 803f
00000020: 0000 803f 0000 803f 0000 803f 0000 803f
00000030: 0000 803f 0000 803f 0000 803f 0000 803f
00000040: 0000 803f 0000 803f 0000 803f 0000 803f
00000050: 0000 803f 0000 803f 0000 803f 0000 803f
00000060: 0000 803f 0000 803f 0000 803f 0000 803f
00000070: 0000 803f 0000 803f 0000 803f 0000 803f
00000080: 0000 803f 0000 803f 0000 803f 0000 803f
00000090: 0000 803f 0000 803f 0000 803f 0000 803f
000000a0: 0000 803f 0000 803f 0000 803f 0000 803f
000000b0: 0000 803f 0000 803f 0000 803f 0000 803f
000000c0: 0000 803f 0000 803f 0000 803f 0000 803f
000000d0: 0000 803f 0000 803f 0000 803f 0000 803f
000000e0: 0000 803f 0000 803f 0000 803f 0000 803f
000000f0: 0000 803f 0000 803f 0000 803f 0000 803f
00000100: 0000 803f 0000 803f 0000 803f 0000 803f
00000110: 0000 803f 0000 803f 0000 803f 0000 803f
00000120: 0000 803f 0000 803f 0000 803f 0000 803f
00000130: 0000 803f 0000 803f 0000 803f 0000 803f
00000140: 0000 803f 0000 803f 0000 803f 0000 803f
00000150: 0000 803f 0000 803f 0000 803f 0000 803f
00000160: 0000 803f 0000 803f 0000 803f 0000 803f
00000170: 0000 803f 0000 803f 0000 803f 0000 803f
00000180: 0000 803f 0000 803f 0000 803f 0000 803f
1.0 1.0 1.0 1.0 1.0 1.0 1.0 1.0
1.0 1.0 1.0 1.0 1.0 1.0 1.0 1.0
1.0 1.0 1.0 1.0 1.0 1.0 1.0 1.0
1.0 1.0 1.0 1.0 1.0 1.0 1.0 1.0
1.0 1.0 1.0 1.0 1.0 1.0 1.0 1.0
1.0 1.0 1.0 1.0 1.0 1.0 1.0 1.0
1.0 1.0 1.0 1.0 1.0 1.0 1.0 1.0
1.0 1.0 1.0 1.0 1.0 1.0 1.0 1.0
1.0 1.0 1.0 1.0 1.0 1.0 1.0 1.0
1.0 1.0 1.0 1.0 1.0 1.0 1.0 1.0
1.0 1.0 1.0 1.0 1.0 1.0 1.0 1.0
1.0 1.0 1.0 1.0 1.0 1.0 1.0 1.0
1.0 1.0 1.0 1.0

hidden2_bn.weight f4 [100]
00000000: ecb2 973e 4916 4e3f e854 533f 746f 703e
00000010: 6a2d 633f 38ca 6b3f 6317 7a3f ec2b 1c3f
00000020: 5cc4 ad3e db24 573f 1ebd 343f fe2d 123f
00000030: 08ae f93e ee70 e43e 7858 4e3f 011d 763f
00000040: 508e de3e 5967 223f 88e5 3a3e 857b 2b3f
00000050: e751 503f 4780 7d3f deb5 5d3f e477 593f
00000060: 354a 533f 2a8f e13e 2dba 1c3f 131c 2f3f
00000070: 48f7 a03e 20ed fa3d 5037 453e 3297 713f
00000080: 5cfa 3e3e f09f 1d3d d065 7a3d 00ae 513f
00000090: 654b 443f 7ac4 c53e 7c3e 203e 8de2 373f
000000a0: 38a9 e23e 4084 c93e 26b6 373f 3ca8 203f
000000b0: 107a 793e 0c2f 343e e01b 4a3e bb27 713f
000000c0: 008f cc3b e40d b83e d0aa 863e 2e7d 8a3e
000000d0: 87cb 423f 7cee 693f 02a9 a53e 0423 bf3e
000000e0: 3e33 b83e 34ef 403e 5c20 8e3e 28d7 c13d
000000f0: 1a39 bf3e 02c7 a43e 58d6 813e f009 063f
00000100: 5c53 de3e 70d6 163e 7be0 303f 571a 203f
00000110: 9ae9 4c3f 9401 7a3f 00c7 c53c 4b92 6f3f
00000120: 5471 123e 9631 3f3f fc01 503f 1c78 013e
00000130: 9ee8 c13e f4e6 f13e f27b a83e 8010 813b
00000140: 6eb1 b93e b412 373f 29ec 6a3f e4b3 af3e
00000150: e73a 723f c8ed 513f 18ec ef3e d811 d83d
00000160: 76bb 763f 1428 023e 0d15 223f a0bd f43d
00000170: fe32 a43e 58a7 a13e cab1 603f e4d0 3a3e
00000180: e414 253f d665 3d3f 8a6a 5b3f 61dd 193f
0.29628694 0.80502754 0.8255143 0.23480016 0.8874117 0.92105436 0.97691935 0.6100452
0.33938873 0.8404061 0.7060107 0.5710143 0.48765588 0.4461741 0.8060374 0.96138006
0.4346795 0.63438946 0.18251622 0.6698535 0.81374973 0.9902386 0.8660563 0.84948564
0.82535106 0.44054538 0.6122158 0.6840221 0.3143866 0.12252259 0.19259381 0.9437133
0.18650192 0.038482606 0.061132252 0.8190613 0.7667754 0.38626462 0.15648836 0.71830064
0.4426973 0.3935871 0.7176231 0.62756705 0.2436297 0.17596072 0.19737196 0.9420125
0.006242633 0.35948098 0.26302195 0.2704863 0.7609181 0.91379523 0.32355505 0.37331402
0.35976595 0.18841249 0.27759063 0.09464866 0.37348253 0.3218308 0.25358844 0.52358913
0.43422973 0.14730239 0.6909253 0.6254019 0.8004395 0.9765866 0.024142742 0.935826
0.14301044 0.7468504 0.8125303 0.12643474 0.37872785 0.47246516 0.32907063 0.0039387345
0.3626818 0.71512914 0.917666 0.34316933 0.9462113 0.8200345 0.46859813 0.105502784
0.9637979 0.12710601 0.6331337 0.119502306 0.32070154 0.31572986 0.87771285 0.18243748
0.64485 0.73983514 0.8570944 0.6010342

hidden2_bn.bias f4 [100]
00000000: 0000 0000 0000 0000 0000 0000 0000 0000
00000010: 0000 0000 0000 0000 0000 0000 0000 0000
00000020: 0000 0000 0000 0000 0000 0000 0000 0000
00000030: 0000 0000 0000 0000 0000 0000 0000 0000
00000040: 0000 0000 0000 0000 0000 0000 0000 0000
00000050: 0000 0000 0000 0000 0000 0000 0000 0000
00000060: 0000 0000 0000 0000 0000 0000 0000 0000
00000070: 0000 0000 0000 0000 0000 0000 0000 0000
00000080: 0000 0000 0000 0000 0000 0000 0000 0000
00000090: 0000 0000 0000 0000 0000 0000 0000 0000
000000a0: 0000 0000 0000 0000 0000 0000 0000 0000
000000b0: 0000 0000 0000 0000 0000 0000 0000 0000
000000c0: 0000 0000 0000 0000 0000 0000 0000 0000
000000d0: 0000 0000 0000 0000 0000 0000 0000 0000
000000e0: 0000 0000 0000 0000 0000 0000 0000 0000
000000f0: 0000 0000 0000 0000 0000 0000 0000 0000
00000100: 0000 0000 0000 0000 0000 0000 0000 0000
00000110: 0000 0000 0000 0000 0000 0000 0000 0000
00000120: 0000 0000 0000 0000 0000 0000 0000 0000
00000130: 0000 0000 0000 0000 0000 0000 0000 0000
00000140: 0000 0000 0000 0000 0000 0000 0000 0000
00000150: 0000 0000 0000 0000 0000 0000 0000 0000
00000160: 0000 0000 0000 0000 0000 0000 0000 0000
00000170: 0000 0000 0000 0000 0000 0000 0000 0000
00000180: 0000 0000 0000 0000 0000 0000 0000 0000
0.0 0.0 0.0 0.0 0.0 0.0 0.0 0.0
0.0 0.0 0.0 0.0 0.0 0.0 0.0 0.0
0.0 0.0 0.0 0.0 0.0 0.0 0.0 0.0
0.0 0.0 0.0 0.0 0.0 0.0 0.0 0.0
0.0 0.0 0.0 0.0 0.0 0.0 0.0 0.0
0.0 0.0 0.0 0.0 0.0 0.0 0.0 0.0
0.0 0.0 0.0 0.0 0.0 0.0 0.0 0.0
0.0 0.0 0.0 0.0 0.0 0.0 0.0 0.0
0.0 0.0 0.0 0.0 0.0 0.0 0.0 0.0
0.0 0.0 0.0 0.0 0.0 0.0 0.0 0.0
0.0 0.0 0.0 0.0 0.0 0.0 0.0 0.0
0.0 0.0 0.0 0.0 0.0 0.0 0.0 0.0
0.0 0.0 0.0 0.0

hidden2_bn.running_mean f4 [100]
00000000: 0000 0000 0000 0000 0000 0000 0000 0000
00000010: 0000 0000 0000 0000 0000 0000 0000 0000
00000020: 0000 0000 0000 0000 0000 0000 0000 0000
00000030: 0000 0000 0000 0000 0000 0000 0000 0000
00000040: 0000 0000 0000 0000 0000 0000 0000 0000
00000050: 0000 0000 0000 0000 0000 0000 0000 0000
00000060: 0000 0000 0000 0000 0000 0000 0000 0000
00000070: 0000 0000 0000 0000 0000 0000 0000 0000
00000080: 0000 0000 0000 0000 0000 0000 0000 0000
00000090: 0000 0000 0000 0000 0000 0000 0000 0000
000000a0: 0000 0000 0000 0000 0000 0000 0000 0000
000000b0: 0000 0000 0000 0000 0000 0000 0000 0000
000000c0: 0000 0000 0000 0000 0000 0000 0000 0000
000000d0: 0000 0000 0000 0000 0000 0000 0000 0000
000000e0: 0000 0000 0000 0000 0000 0000 0000 0000
000000f0: 0000 0000 0000 0000 0000 0000 0000 0000
00000100: 0000 0000 0000 0000 0000 0000 0000 0000
00000110: 0000 0000 0000 0000 0000 0000 0000 0000
00000120: 0000 0000 0000 0000 0000 0000 0000 0000
00000130: 0000 0000 0000 0000 0000 0000 0000 0000
00000140: 0000 0000 0000 0000 0000 0000 0000 0000
00000150: 0000 0000 0000 0000 0000 0000 0000 0000
00000160: 0000 0000 0000 0000 0000 0000 0000 0000
00000170: 0000 0000 0000 0000 0000 0000 0000 0000
00000180: 0000 0000 0000 0000 0000 0000 0000 0000
0.0 0.0 0.0 0.0 0.0 0.0 0.0 0.0
0.0 0.0 0.0 0.0 0.0 0.0 0.0 0.0
0.0 0.0 0.0 0.0 0.0 0.0 0.0 0.0
0.0 0.0 0.0 0.0 0.0 0.0 0.0 0.0
0.0 0.0 0.0 0.0 0.0 0.0 0.0 0.0
0.0 0.0 0.0 0.0 0.0 0.0 0.0 0.0
0.0 0.0 0.0 0.0 0.0 0.0 0.0 0.0
0.0 0.0 0.0 0.0 0.0 0.0 0.0 0.0
0.0 0.0 0.0 0.0 0.0 0.0 0.0 0.0
0.0 0.0 0.0 0.0 0.0 0.0 0.0 0.0
0.0 0.0 0.0 0.0 0.0 0.0 0.0 0.0
0.0 0.0 0.0 0.0 0.0 0.0 0.0 0.0
0.0 0.0 0.0 0.0

hidden2_bn.running_var f4 [100]
00000000: 0000 803f 0000 803f 0000 803f 0000 803f
00000010: 0000 803f 0000 803f 0000 803f 0000 803f
00000020: 0000 803f 0000 803f 0000 803f 0000 803f
00000030: 0000 803f 0000 803f 0000 803f 0000 803f
00000040: 0000 803f 0000 803f 0000 803f 0000 803f
00000050: 0000 803f 0000 803f 0000 803f 0000 803f
00000060: 0000 803f 0000 803f 0000 803f 0000 803f
00000070: 0000 803f 0000 803f 0000 803f 0000 803f
00000080: 0000 803f 0000 803f 0000 803f 0000 803f
00000090: 0000 803f 0000 803f 0000 803f 0000 803f
000000a0: 0000 803f 0000 803f 0000 803f 0000 803f
000000b0: 0000 803f 0000 803f 0000 803f 0000 803f
000000c0: 0000 803f 0000 803f 0000 803f 0000 803f
000000d0: 0000 803f 0000 803f 0000 803f 0000 803f
000000e0: 0000 803f 0000 803f 0000 803f 0000 803f
000000f0: 0000 803f 0000 803f 0000 803f 0000 803f
00000100: 0000 803f 0000 803f 0000 803f 0000 803f
00000110: 0000 803f 0000 803f 0000 803f 0000 803f
00000120: 0000 803f 0000 803f 0000 803f 0000 803f
00000130: 0000 803f 0000 803f 0000 803f 0000 803f
00000140: 0000 803f 0000 803f 0000 803f 0000 803f
00000150: 0000 803f 0000 803f 0000 803f 0000 803f
00000160: 0000 803f 0000 803f 0000 803f 0000 803f
00000170: 0000 803f 0000 803f 0000 803f 0000 803f
00000180: 0000 803f 0000 803f 0000 803f 0000 803f
1.0 1.0 1.0 1.0 1.0 1.0 1.0 1.0
1.0 1.0 1.0 1.0 1.0 1.0 1.0 1.0
1.0 1.0 1.0 1.0 1.0 1.0 1.0 1.0
1.0 1.0 1.0 1.0 1.0 1.0 1.0 1.0
1.0 1.0 1.0 1.0 1.0 1.0 1.0 1.0
1.0 1.0 1.0 1.0 1.0 1.0 1.0 1.0
1.0 1.0 1.0 1.0 1.0 1.0 1.0 1.0
1.0 1.0 1.0 1.0 1.0 1.0 1.0 1.0
1.0 1.0 1.0 1.0 1.0 1.0 1.0 1.0
1.0 1.0 1.0 1.0 1.0 1.0 1.0 1.0
1.0 1.0 1.0 1.0 1.0 1.0 1.0 1.0
1.0 1.0 1.0 1.0 1.0 1.0 1.0 1.0
1.0 1.0 1.0 1.0

hidden3_bn.weight f4 [100]
00000000: 6095 ed3c 404e 063e 90e3 143e f014 c43d
00000010: 54e2 453f 8238 be3e f0cf 7c3e f28c 303f
00000020: 2dfd 6b3f a8bb 8b3e bc78 453e 6681 213f
00000030: 7b4b 393f f719 353f 84b7 a73e 2e78 753f
00000040: bdf0 313f 3ef7 313f 1d67 2e3f 8040 d73e
00000050: dcac 5a3e b534 6b3f 88bb be3e 9ea4 ac3e
00000060: 00c5 8d3b 6875 e63d 443c 423e a65f 653f
00000070: 40ab 4c3d 6a90 803e ae5b fe3e 4f85 1f3f
00000080: 1638 e43e 1efa 5c3f 8203 493f 73ca 653f
00000090: b351 583f deeb a83e 3c09 2e3e c879 d43d
000000a0: a4a0 5b3e 9aa2 263f 7ea8 663f fe60 573f
000000b0: fc8b a63e abb0 113f 493e 5e3f 4022 a53c
000000c0: 9434 e83e 029d f63e 1ebe 203f c1c1 613f
000000d0: 582f e03e ae03 013f 961d 3d3f 6a5a b23e
000000e0: 6cda 163f 498b 373f eab6 f33e d861 9d3d
000000f0: f0af 943e b43f a13e 74e8 f53e fea4 5b3f
00000100: 0048 953d 944e 763f bce0 4b3e 8cde 523e
00000110: 18e4 463f cffa 483f 2002 373e 90b6 ec3d
00000120: 687d 443f da20 103f f0c7 cd3e 20c5 823e
00000130: 7ce0 d63e 5867 a53d b05c dc3e 4c98 f53e
00000140: 0b87 113f 704e 243f d0be 643d 3832 243e
00000150: 981b e93d 2227 443f 6caf 4c3e f226 ff3e
00000160: c0e8 913c d003 3a3e 9ae0 923e d292 663f
00000170: c2e8 1a3f 8088 d03b bc64 483e 0066 e73c
00000180: 5a97 983e b50e 7d3f 412b 7d3f 2249 f53e
0.029001892 0.13115788 0.14539933 0.09574306 0.77298474 0.37152487 0.24688697 0.68965065
0.9218319 0.27291608 0.19284338 0.6308807 0.723808 0.70742744 0.327572 0.95886505
0.6950796 0.69517887 0.6812609 0.42041397 0.21355003 0.918773 0.3725245 0.33719343
0.0043264627 0.11252862 0.18968302 0.8959907 0.049968004 0.2511018 0.4967932 0.6231279
0.4457404 0.8631915 0.7852098 0.8976204 0.84499663 0.32992452 0.1699571 0.103747904
0.21447998 0.6509186 0.9010085 0.84132373 0.32528675 0.569102 0.8681379 0.020157933
0.45352614 0.48166662 0.62790096 0.8818627 0.4378612 0.5039624 0.7387327 0.34834605
0.58927035 0.7169691 0.4760049 0.07684678 0.2904048 0.31493914 0.4802891 0.85798633
0.072891235 0.9621365 0.19909948 0.20592707 0.77691793 0.78507704 0.17871904 0.115582585
0.76753855 0.5630013 0.40191603 0.2554102 0.41968143 0.08076352 0.43039465 0.47967756
0.56846684 0.64182186 0.055846035 0.16034782 0.11382216 0.7662221 0.19988793 0.498344
0.01781118 0.18165517 0.28686982 0.9006778 0.6051141 0.0063639283 0.19569677 0.02824688
0.29802972 0.98850566 0.98894125 0.47907358
